Examples/Scripts/Python/MLAmbiguityResolution/duplicateClassifier.onnx (onnx, 3204 bytes, 7 tensors)

1.linear1.weight f4 [10, 8]
0	0x3e99aab3	0.30013046
1	0xbfc413b9	-1.5318519
2	0xbe12166c	-0.14266366
3	0xbed7a357	-0.42116806
4	0x3f3bc254	0.73343396
5	0x3c462f40	0.012096226
6	0x3c211025	0.009830509
7	0xbb765ffa	-0.0037593828
8	0xbda1052e	-0.07862316
9	0x3de8d784	0.11369231
10	0xbf5d5675	-0.8646005
11	0xbf159450	-0.5842943
12	0x3f0dae67	0.5534424
13	0xbd3d3e3c	-0.04620193
14	0x3c6f753a	0.014615351
15	0xbd16fcbd	-0.036862124
16	0xbe087d78	-0.13329113
17	0x3f337684	0.70102715
18	0xbca71da3	-0.020399874
19	0xbee43423	-0.44571027
20	0x3f1aab10	0.6041727
21	0x3cc47554	0.023981728
22	0x3c808ff3	0.01569364
23	0x3bee8567	0.0072790864
24	0x3f46cd88	0.77657366
25	0xbf614e77	-0.8801035
26	0xbf0d22f8	-0.55131483
27	0x3c49a447	0.012307233
28	0x3fa9cbf7	1.326537
29	0xbd196090	-0.037445605
30	0x3bca9f2b	0.006183525
31	0x3b7c9557	0.0038541162
32	0x3e3e9cfd	0.18614574
33	0x3f9f12c4	1.2427602
34	0xbe02b3fb	-0.1276397
35	0xbe37045d	-0.17872758
36	0xbf4b6a68	-0.7945924
37	0xbe15aeaa	-0.1461741
38	0xbc832337	-0.016008003
39	0xbb9064c1	-0.004406542
40	0xbfcc81c4	-1.5977101
41	0xbe7f986e	-0.24960491
42	0x3f199253	0.599889
43	0x3dab7606	0.083721206
44	0xbf4fdb82	-0.8119432
45	0xbbec8b82	-0.007218779
46	0xbc825c21	-0.015913071
47	0x3bf1aa60	0.0073750466
48	0x3f1c6a7a	0.6109997
49	0xbe24f4e4	-0.16109043
50	0xbf0d8911	-0.5528727
51	0x3bb82c75	0.005620534
52	0x3f8fd535	1.1236941
53	0xbe2f8076	-0.17138848
54	0xbc2d882f	-0.010591551
55	0xbc40669d	-0.011743215
56	0xbea17973	-0.3153797
57	0x3f27a02c	0.6547878
58	0xbe5e1f63	-0.2169166
59	0xbca5aa7b	-0.020222893
60	0xbf7b1f02	-0.9809419
61	0x3e1dca31	0.15409161
62	0xbbd42a6d	-0.006474784
63	0xbc699aba	-0.014258081
64	0x3e2b03d3	0.16700678
65	0x3f2640eb	0.64942807
66	0x3edf2ce1	0.43588927
67	0xba3a8a15	-0.0007115913
68	0xc0068bbe	-2.1022792
69	0x3d8afd28	0.06786567
70	0x3c96783f	0.018367885
71	0x3ba61f55	0.005069653
72	0xbe8c0a76	-0.2735173
73	0x3efe0406	0.49612445
74	0x3e23876b	0.15969627
75	0xbec3c156	-0.3823344
76	0xbfdf1575	-1.7428423
77	0x3dc94dac	0.09829268
78	0xbbb4c5a9	-0.005516727
79	0x3b9aaf1d	0.004720582

1.linear1.bias f4 [10]
0	0xbd62e083	-0.055389892
1	0x3d24643f	0.040134665
2	0x3ebece25	0.3726665
3	0x3e9e1244	0.3087331
4	0x3e655d60	0.22398901
5	0xbeec6428	-0.46170163
6	0xbf59a162	-0.85011876
7	0x3e82ddf6	0.25559968
8	0x3ed3be08	0.4135592
9	0x3e391474	0.18074208

1.linear2.weight f4 [15, 10]
0	0x3f10824f	0.56448835
1	0xbe545d0a	-0.20738617
2	0xbe0df72b	-0.13863818
3	0xbd638d08	-0.05555442
4	0x3d070a65	0.032968897
5	0xbd10c66a	-0.035345472
6	0x3e3f48ef	0.18680166
7	0x3e375241	0.17902471
8	0x3f0e31f5	0.5554498
9	0xbcebaa50	-0.028767735
10	0x3e46c1db	0.19409887
11	0xbe1128c0	-0.14175701
12	0xbea769c1	-0.3269787
13	0x3e43416e	0.19067928
14	0x3e018523	0.12648444
15	0xbdde73b0	-0.108619094
16	0x3e99dc79	0.3005102
17	0xbdce330c	-0.1006833
18	0x3f1146a1	0.56748396
19	0x3e5dd5db	0.2166361
20	0x3eb33e04	0.35008252
21	0x3e0dbbe1	0.13841201
22	0x3ea1f47f	0.31631848
23	0xbf1913fc	-0.5979612
24	0xbee5fb20	-0.44918156
25	0x3f0b640f	0.5444955
26	0x407693e0	3.8527756
27	0x3ddee0c6	0.10882716
28	0x3e95e73c	0.2927798
29	0x3d211229	0.03932396
30	0xbe8762df	-0.2644262
31	0x3e6ef795	0.23336633
32	0xbe313d04	-0.17308432
33	0x3e8dbd39	0.27683428
34	0x3eb51a20	0.35371494
35	0x3f1c6720	0.61094856
36	0x3f88a4f7	1.0675343
37	0xbe586277	-0.21131311
38	0xbec28e5e	-0.37999243
39	0xbe88763a	-0.266527
40	0xbe67c785	-0.22634704
41	0x3de7df57	0.113218956
42	0x3dd118e5	0.102098264
43	0xbe259fa7	-0.16174184
44	0xbe8f38d4	-0.27973044
45	0xbe330c60	-0.1748519
46	0xbea2bb9a	-0.31783754
47	0x3da39afe	0.07988547
48	0x3dce88d0	0.10084689
49	0xbe98542b	-0.29751715
50	0x3f490f8d	0.78539354
51	0x3e7c2d9f	0.24626778
52	0xbe0ceeeb	-0.13763015
53	0xbf06c3f9	-0.5264278
54	0x3d52594b	0.051354688
55	0xbdaeb188	-0.08529955
56	0xbeb6c15a	-0.3569439
57	0xbd2dfc37	-0.04247686
58	0x3e1aecfb	0.15129463
59	0x3ed1593f	0.40888402
60	0xbebf7f50	-0.3740182
61	0x3e814284	0.2524606
62	0x3ea02022	0.31274515
63	0x3f0200d4	0.50782514
64	0x3ee27b18	0.44234538
65	0x3ed3807f	0.41308972
66	0x3f9e7aa8	1.2381182
67	0x3e483203	0.19550328
68	0xbe8f195f	-0.27949044
69	0x3e05d86d	0.13070841
70	0xbdd5752d	-0.1042274
71	0xbf02dcd6	-0.5111822
72	0xbbd188ca	-0.0063944804
73	0xbf0cfe99	-0.55075985
74	0x3e2627b3	0.16226082
75	0xbe3c5b46	-0.18394193
76	0xbe2295dd	-0.15877481
77	0x3e886092	0.26636177
78	0x3df73e98	0.12072486
79	0x3e9a51ce	0.30140537
80	0x3ef6639b	0.48122868
81	0xbdee8f43	-0.11648419
82	0x3e50bbbc	0.20384115
83	0xbee6510d	-0.44983712
84	0xbda6e287	-0.081486754
85	0xbe2fc038	-0.1716317
86	0xbe254256	-0.16138586
87	0xbeb03198	-0.34412837
88	0x3ea71b2b	0.32637915
89	0x3dfb9127	0.12283545
90	0x3f05fb25	0.5233634
91	0x3e16d2c2	0.14728835
92	0x3daacd35	0.083399214
93	0x3f06a249	0.5259138
94	0xbe115237	-0.14191519
95	0xbe1c0a66	-0.15238342
96	0x40343796	2.8158927
97	0xbe23a88a	-0.15982261
98	0xbbb9ea98	-0.0056737177
99	0xbe52777f	-0.20553397
100	0x3e8fc993	0.28083476
101	0x3e951554	0.29117835
102	0x3e74fdcb	0.2392494
103	0x3eda1a14	0.4259802
104	0x3f0ce858	0.5504203
105	0xbee3300c	-0.44372594
106	0x3fc0cb88	1.5062113
107	0x3d076893	0.033058714
108	0xbe66a249	-0.22522844
109	0x3ef77a2a	0.4833539
110	0xbe601d7d	-0.21886249
111	0xbd03c79b	-0.03217278
112	0xbf19e152	-0.60109437
113	0xbe30931d	-0.1724362
114	0x3eba95ed	0.3644251
115	0x3e017ea2	0.12645963
116	0x3ed217c3	0.41033754
117	0x3d2ce7ab	0.042213123
118	0x3e9a2607	0.30107138
119	0x3ee0287d	0.4378089
120	0xbd43b561	-0.0477804
121	0x3c3740cd	0.011184883
122	0xbf067074	-0.5251534
123	0x3e1c3986	0.15256318
124	0x3ee98e53	0.45616397
125	0x3e73a910	0.23794961
126	0x3f6a3b57	0.91496795
127	0xbe50ff90	-0.2040999
128	0x3ed4827e	0.41505808
129	0x3eb3d8ff	0.35126492
130	0xbf3ace19	-0.7297073
131	0xbea50505	-0.32230392
132	0x3eb7e173	0.35914192
133	0xbf4935d7	-0.7859778
134	0x3ec2018c	0.37891805
135	0x3eefe1ef	0.4685206
136	0x3f2a9eb9	0.6664844
137	0xbe019744	-0.1265536
138	0x3e328ce7	0.17436562
139	0x3eb88802	0.36041266
140	0x3f3cbb97	0.7372374
141	0xbedb7beb	-0.4286798
142	0x3da49f4b	0.08038195
143	0xbd1845a6	-0.037175797
144	0xbdd6220a	-0.10455711
145	0x3e5be04c	0.21472281
146	0x3edf9f4a	0.43676215
147	0x3e3387e9	0.17532314
148	0x3f084f49	0.5324598
149	0x3e1669de	0.14688823

1.linear2.bias f4 [15]
0	0x3ec9d874	0.39422953
1	0x3db87b26	0.09007864
2	0xbd01a891	-0.031654898
3	0xbea48be8	-0.3213799
4	0xbea474e4	-0.3212043
5	0x3ed0e530	0.40799856
6	0x3db47587	0.08811479
7	0xbe7dbf55	-0.24780019
8	0x3ee33747	0.4437811
9	0xbd2806ce	-0.041022114
10	0x3e1f26ac	0.15542096
11	0x3d909451	0.07059539
12	0xbf2933e4	-0.66094804
13	0xbc81c9cc	-0.015843295
14	0x3efc60b3	0.49292526

1.linear3.weight f4 [10, 15]
0	0x3e13b40f	0.14424156
1	0x3ccfc773	0.02536366
2	0xbe500365	-0.20313795
3	0xbd4869ab	-0.048928898
4	0x3e348d4d	0.17632027
5	0x3edd2385	0.43191162
6	0xbd80a623	-0.06281688
7	0x3cd1bf3f	0.025603889
8	0x3ec973eb	0.3934625
9	0x3e5fe2ec	0.21863908
10	0xbd52dbfa	-0.051479317
11	0x3e99a784	0.30010617
12	0x3f8103c4	1.0079274
13	0x3f0c969a	0.549173
14	0x3ec20943	0.3789769
15	0x3e4cc914	0.1999858
16	0x3dbd99be	0.092578396
17	0xbe754a5c	-0.23954147
18	0xbe8d7e8a	-0.27635604
19	0x3b2da32d	0.0026494965
20	0x3ece840b	0.40335116
21	0xbcbfb470	-0.023401469
22	0xbd23665c	-0.03989254
23	0x3d0a949b	0.033833127
24	0x3eabe0b2	0.33569866
25	0xbe49ede2	-0.19719651
26	0x3e9e3695	0.30901018
27	0x3f69ceee	0.91331375
28	0x3ef667ca	0.4812606
29	0x3eabc9e3	0.33552465
30	0x3da911d3	0.08255353
31	0xbaa7d863	-0.0012805577
32	0x3e5de3f7	0.21668993
33	0x3edffb7c	0.43746555
34	0xbd8ad0ca	-0.067781046
35	0xbd31e8c5	-0.043434877
36	0x3ed090f3	0.40735587
37	0x3d7b38b8	0.061333388
38	0x3dd286c6	0.10279612
39	0x3e8ca3a8	0.2746861
40	0x3dc51232	0.09622611
41	0x3e94a74e	0.29033893
42	0xbf90bb82	-1.1307223
43	0xbec0ea8a	-0.3767894
44	0xbdc9f90f	-0.09861957
45	0x3ea17934	0.31537783
46	0x3ec194c8	0.37808824
47	0x3dcb9311	0.0994016
48	0xbde23a60	-0.110462904
49	0x3e45e123	0.19324164
50	0x3f15f32c	0.58574176
51	0x3d35ee92	0.04441697
52	0xbe98a64d	-0.29814377
53	0x3f02c851	0.5108691
54	0x3edb83e7	0.4287407
55	0xbe890be6	-0.2676689
56	0x3eeb5309	0.45961788
57	0x3f98ec58	1.1947126
58	0x3ef2d730	0.474298
59	0x3e801e38	0.25023055
60	0xbe30f2f9	-0.17280187
61	0x3df0a79f	0.11750721
62	0x3eda6064	0.42651665
63	0x3edf8889	0.43658856
64	0xbe0dd603	-0.1385117
65	0x3e02dd11	0.12779643
66	0x3ef262cf	0.4734101
67	0x3e16824b	0.1469814
68	0xbe3d2444	-0.18470865
69	0x3e89e8c8	0.2693541
70	0x3ef0c6c8	0.47026658
71	0xbe0e9c93	-0.13926916
72	0xbf502d08	-0.8131871
73	0xbebb10fa	-0.3653639
74	0xbc2b9c64	-0.010474298
75	0xbe82da76	-0.25557297
76	0x3e62af9c	0.22137302
77	0x3e4849c9	0.19559397
78	0x3f338ba2	0.7013494
79	0x3c5216ca	0.012822816
80	0xbe058f83	-0.13043027
81	0x3e32681a	0.17422524
82	0xbdc9c8c6	-0.098527476
83	0xbe1ed39a	-0.15510407
84	0xbd946fb2	-0.07247867
85	0x3ee8c2c8	0.45461106
86	0x3ed35bf5	0.41281095
87	0xbf7cf875	-0.98816615
88	0xbf79f89f	-0.9764499
89	0xbf073c6d	-0.5282658
90	0x3db1a601	0.08674241
91	0x3dfcb3e8	0.12339002
92	0x3c616899	0.013757848
93	0xbe968b55	-0.29403177
94	0xbdf3e832	-0.11909522
95	0x3ea55f34	0.32299197
96	0xbe469443	-0.19392495
97	0xbd157b1c	-0.03649436
98	0x3da8bf89	0.082396574
99	0x3e03cf3f	0.12872027
100	0x3b1c599e	0.0023857127
101	0x3e0a7978	0.13522899
102	0x3f7585c4	0.95907235
103	0x3ef60c0f	0.48056075
104	0x3e8284e3	0.2549201
105	0xbdc89f20	-0.09795976
106	0x3d541918	0.051781744
107	0x3ec31c5e	0.3810758
108	0x3f19c86b	0.6007144
109	0x3e4c638b	0.19959848
110	0x3d889772	0.06669511
111	0x3edd7d75	0.4325978
112	0x3ea53e7d	0.32274237
113	0xbddd66b6	-0.10810606
114	0x3eec2e3a	0.46129018
115	0x3f063ec6	0.52439535
116	0x3d9c4a72	0.07631387
117	0xbf8c5fd4	-1.0966744
118	0xbe3e6630	-0.18593669
119	0xbceb9ecf	-0.02876225
120	0xbc41a9e8	-0.011820294
121	0xbe837b80	-0.2568016
122	0xbe6b17f5	-0.22958358
123	0xbe1b238d	-0.1515028
124	0x3e8046aa	0.25053912
125	0xbc121f9e	-0.008918671
126	0xbe831954	-0.2560526
127	0xbda46dab	-0.0802873
128	0xbe95e035	-0.2927262
129	0xbeaa77ea	-0.33294612
130	0x3e451c3d	0.19249053
131	0xbe90e795	-0.28301683
132	0xbcd1580f	-0.025554685
133	0x3d7b10ad	0.0612952
134	0x3d873e31	0.06603659
135	0xbdef305e	-0.11679147
136	0xbd0e2ab7	-0.034708705
137	0x3e964300	0.29347992
138	0x3f10f3c1	0.5662194
139	0x3e0fb34c	0.1403324
140	0xbe87e16e	-0.26539177
141	0x3edda556	0.43290204
142	0x3ec7aa86	0.38997287
143	0x3d5c7509	0.05382255
144	0x3ee89f8b	0.45434222
145	0x3e8b75a5	0.27238193
146	0xbd2aaa7c	-0.041666493
147	0xbf90509a	-1.1274598
148	0xbeece5a5	-0.46268955
149	0x3e9a32e5	0.30116954

1.linear3.bias f4 [10]
0	0x3d5f1ddf	0.054471847
1	0x3eb1544b	0.34634623
2	0x3eac1be1	0.3361502
3	0x3db44516	0.088022396
4	0x3ea22491	0.31668523
5	0x3e411dad	0.18858977
6	0x3ece161b	0.4025124
7	0x3e80df75	0.25170484
8	0x3d1bb3e6	0.03801336
9	0x3e9920c6	0.29907817

1.output.weight f4 [1, 10]
0	0xbf082f4e	-0.5319718
1	0xbf0c764f	-0.54868025
2	0x3ec108a3	0.37701902
3	0xbec8dd6a	-0.39231426
4	0x3e636cf2	0.22209528
5	0x3f0d4e54	0.55197644
6	0xbe9b90bc	-0.3038386
7	0x3ee547a1	0.4478121
8	0x3b95599b	0.004557801
9	0x3f0af8f9	0.5428615
