Examples/Scripts/Python/MLAmbiguityResolution/seedDuplicateClassifier.onnx (onnx, 123798 bytes, 11 tensors)

1.linear1.weight f4 [80, 14]
000000 01 b9 f1 c0 93 c4 01 3f f0 9a 1e 3b 8d 68 0e be
       -7.5538335 0.50690573 0.0024201237 -0.1390707
000010 65 63 0d bd fa f3 c3 3f 24 7a 94 bd f1 6b 15 bc
       -0.034518618 1.5308831 -0.07249859 -0.0091199735
000020 3c 6a 5b 40 18 2a e5 3e d1 2e e5 3d d6 9b 5b 41
       3.428359 0.44758677 0.1119057 13.725546
000030 b5 1e 57 3f df 39 c9 be 9b 68 d3 c0 27 15 14 3b
       0.8403123 -0.39301965 -6.606519 0.0022595616
000040 dd 78 19 3f d6 ff 7d 40 aa 01 fb bf 03 97 15 3d
       0.5995005 3.96874 -1.9609883 0.03652097
000050 6f 39 42 3e 7b 3d 2e 3e ae 07 38 3e 7f 75 d3 3e
       0.18967222 0.1701564 0.1797168 0.4130058
000060 92 a6 8e 3e 58 bd b9 be 79 00 08 3d dc 75 3c bd
       0.27861458 -0.3627727 0.033203576 -0.046010837
000070 2c 6d 07 c0 81 19 18 be 8f d8 18 bc b7 37 d7 3e
       -2.1160383 -0.14853479 -0.009328975 0.42034695
000080 ec a9 9b 3e 38 5a 83 bf 85 82 8d bf b9 47 c2 be
       0.30403078 -1.0261908 -1.1055456 -0.37945345
000090 e1 43 d5 bf 31 d3 9d bf ba 06 bf c0 9d 55 3a c1
       -1.666134 -1.2330076 -5.969571 -11.645902
0000a0 52 b7 29 bf 56 39 b7 bd a5 ac 1b bf fe fd 86 bc
       -0.6629535 -0.08946483 -0.6081031 -0.016478535
0000b0 33 28 5b 3c 5d 1f cc be 80 17 e7 3d dd 02 f8 3e
       0.013376283 -0.39867678 0.11283779 0.48439685
0000c0 7b 3f e3 bc 76 5b 2e 3e bc 75 9b 3e 8e 80 56 be
       -0.02774023 0.17027077 0.30363262 -0.20947477
0000d0 c4 38 87 3d aa cc 02 bf 89 e3 40 3f 18 fa 8a be
       0.06602624 -0.5109354 0.7534719 -0.2714393
0000e0 9f ff 8b c1 2f ad d7 3b 72 15 c2 3c c3 9a 09 3e
       -17.499815 0.0065819244 0.023691867 0.13437943
0000f0 92 20 be be 4e 07 73 bf 98 85 bd be 91 2d cb 3e
       -0.37134224 -0.9493302 -0.37015986 0.39683202
000100 96 9e 27 3f d7 a3 03 3f 96 d3 af 3b 42 22 89 40
       0.6547636 0.51421875 0.005365799 4.285432
000110 fc c4 96 bf 0a 57 95 3e 82 3b 23 c0 a6 88 23 be
       -1.1778865 0.29167968 -2.550507 -0.15970096
000120 ab 9c 94 bc 84 51 0b 3f 3c 13 64 bf 77 6f 8e bf
       -0.018141111 0.5442126 -0.8909185 -1.1127766
000130 ce 75 8e bf 27 3a 55 3f 56 0d ca bf 99 d1 63 c0
       -1.1129701 0.8329186 -1.578532 -3.5596678
000140 33 6c ab 40 da 58 26 c1 88 64 bc bf f8 35 d2 3e
       5.356958 -10.396692 -1.471818 0.410568
000150 97 ca 8e c2 ca 9d 5e 3b 7d b9 2c 3b 8d 78 2c 3d
       -71.39568 0.0033968561 0.0026355677 0.042107154
000160 46 b2 21 3e 4f 01 9d be ff ac 96 bd 88 5c c1 bd
       0.15790662 -0.3066506 -0.07357215 -0.09441477
000170 df ea eb bd f1 21 bc bd a5 e3 b9 be a6 71 4b bf
       -0.115194075 -0.09186161 -0.36306491 -0.7947029
000180 6d 4d b8 3e fd b7 7e bd e1 ef 4a 42 1a 0d 58 bc
       0.3599657 -0.062187184 50.734257 -0.013186717
000190 c0 4a d9 3c ec 00 90 3f a0 fa b9 bf de 81 3d 3f
       0.026524901 1.1250281 -1.452961 0.74026287
0001a0 92 5a b7 bf 0f 65 2a 3f 73 cd 78 3f fb ef 9d 3e
       -1.4324515 0.66560453 0.9718849 0.30847153
0001b0 df d4 16 bf 80 c1 55 be c9 93 6f 3f 74 1e 31 bf
       -0.58918566 -0.20874596 0.9358488 -0.6918709
0001c0 be 05 fe 40 3e f9 d1 bc 56 64 82 3e 4e 39 24 bf
       7.938201 -0.025631543 0.25467175 -0.6414994
0001d0 7e 23 0c 40 eb 41 9d be de 0b a5 3f ae 62 93 bf
       2.1896663 -0.30714354 1.2894247 -1.151449
0001e0 d5 cd 9b 3f 0b 1a a0 40 2b a4 bb c0 97 74 c0 40
       1.217219 5.003179 -5.86379 6.014232
0001f0 c8 f4 6c bd 9d 62 ce be 4b 7c 2a bd be 66 34 3b
       -0.05785063 -0.4030961 -0.04162244 0.002752706
000200 e7 5d a2 bd 08 fc 0b 3e da c3 64 3d 7c 62 86 3e
       -0.07928067 0.13670361 0.05585084 0.26247013
000210 72 90 66 3e 20 30 18 3e a2 82 4a be 29 9e 03 be
       0.22516039 0.14862108 -0.19776395 -0.12853302
000220 2c aa 8a 3b 16 e8 30 3c ea 0f 0a 3e 9b 69 1a bd
       0.004231712 0.010797521 0.13482633 -0.03769837
000230 ed c7 2d c1 03 3b 48 3d 9e bd b3 bc 99 f3 42 3f
       -10.86131 0.048884403 -0.021941002 0.7615295
000240 ce 56 e8 bd a9 78 93 bf 42 c0 e0 be 0b b2 43 3f
       -0.11344682 -1.1521198 -0.4389668 0.76443547
000250 a7 2b 7b bf 3c ad 66 bd e9 0d 13 be c0 35 d8 be
       -0.98113483 -0.056317553 -0.14360775 -0.42228508
000260 74 42 c9 bf a1 80 11 be bb b1 be 41 22 28 69 3e
       -1.5723405 -0.14209224 23.836782 0.22769216
000270 d9 5a a6 be 4b 46 9d bf f6 71 a1 3e da 06 ea 3e
       -0.32491186 -1.2287077 0.31532258 0.45708352
000280 31 04 a5 be 2a f1 96 3e 27 6f 1e 3f f4 57 d7 be
       -0.3222976 0.2948087 0.61888355 -0.4205929
000290 b5 a3 e4 be 47 87 9a be ae 3c 7a bf dd 89 fc be
       -0.4465615 -0.30181333 -0.9774884 -0.4932393
0002a0 a8 9a 10 c1 a0 e6 08 3e 6b 7e d7 3b cc 6f 82 be
       -9.037758 0.13369226 0.0065763495 -0.2547592
0002b0 d8 7c b6 3d 8c 44 0b 3f 6e 18 c2 3e 40 6a 8b be
       0.08910531 0.5440147 0.37909263 -0.272295
0002c0 a5 b0 5f 40 9a 35 74 3e 14 ce 7c bd c9 fd ed 40
       3.4951565 0.23848572 -0.06171997 7.4372296
0002d0 08 af ad 3e 59 db 9e 3f 7d de c1 c0 a8 e1 0b bb
       0.339226 1.241069 -6.058409 -0.0021344218
0002e0 b4 cd 18 bf 0e 62 55 40 61 9e 1f 40 07 ae 8d be
       -0.5968888 3.3341098 2.4940417 -0.27671835
0002f0 13 f3 ec 3e 86 91 3d bf 91 92 04 bf ae 41 46 3f
       0.462792 -0.74050176 -0.5178614 0.7744397
000300 96 ee f8 3d f6 26 fd 3f 99 3f b9 3c bb 27 ad 3d
       0.12154882 1.9777515 0.022613334 0.084548436
000310 07 3b 48 c2 0d 0e 3c b9 0e ee 12 3d 65 d7 41 3e
       -50.057644 -0.00017934311 0.035871558 0.18929823
000320 46 a0 c5 bf ec 14 14 bf 0f 02 e4 be d4 d1 47 3f
       -1.5439537 -0.57844424 -0.4453282 0.7805455
000330 36 81 d7 be aa 3f 23 3f 25 88 02 bf 94 d4 10 3e
       -0.42090768 0.6376902 -0.5098899 0.14143592
000340 51 71 65 bf ca a4 20 bd 82 c7 51 c0 28 4a 81 be
       -0.8962603 -0.039219655 -3.277802 -0.2525189
000350 89 5f 2a 3b 0e dc a9 bd e0 c8 30 3e 98 81 5d 40
       0.0025996885 -0.08293925 0.17264128 3.4610348
000360 ee 4f e6 3e 47 ea 0f bf 91 82 9e 40 13 43 9e bd
       0.44982857 -0.56216854 4.9534383 -0.07727637
000370 ed 2e a7 3e 83 8a b5 c0 6e 62 e7 3f 28 40 c7 c0
       0.3265299 -5.673158 1.8076913 -6.2265816
000380 44 eb d0 3e 21 4f 0c 3c 20 6b 91 bb d4 f8 7b be
       0.40804493 0.008563788 -0.004437819 -0.24606639
000390 4e 78 84 3e 64 0b e9 bd 4d fc 97 bd 2e 16 d1 3e
       0.25873035 -0.11379126 -0.074211694 0.40837234
0003a0 ef b2 1c bf e4 79 f8 be de d5 b9 3f 78 32 06 40
       -0.6121053 -0.48530495 1.4518392 2.0968304
0003b0 eb d4 2b bf 6f 50 b7 bf e0 2d e3 3e ed 86 4c 3e
       -0.6712176 -1.4321421 0.44370937 0.19973345
0003c0 93 1a 86 3d 9d 3f b4 3d e4 e3 6e 3e a5 67 1c bd
       0.065480374 0.08801196 0.23329121 -0.03818478
0003d0 c4 89 48 3e dd ae 67 3e 1c 16 e9 3e f5 bf 33 3f
       0.19583803 0.22625299 0.4552468 0.7021478
0003e0 a9 17 52 3d 5d f8 e5 bd c7 d8 76 3a 46 44 af be
       0.051292095 -0.11229012 0.00094164576 -0.34231776
0003f0 00 22 88 42 1f 4f b6 bb 1b a1 ec 39 e9 4c 99 3e
       68.06641 -0.005563631 0.0004513346 0.2994149

1.linear1.bias f4 [80]
000000 36 b9 9e be 27 1a 55 be b0 bd 2f be f1 42 09 be
       -0.3100068 -0.20810758 -0.17162204 -0.13404442
000010 42 22 a3 bd b2 c4 3c be 8c 10 98 3b 55 80 a3 3d
       -0.079655185 -0.18434408 0.0046406444 0.07983462
000020 b7 8a c7 bd 76 11 0e be 81 5f 1a be b9 eb 30 bf
       -0.09743255 -0.13873848 -0.15075494 -0.69109684
000030 d1 75 55 be 49 2e 81 bd cd 8c 5a 3d c6 5f 65 bd
       -0.20845725 -0.06307656 0.053356934 -0.05599954
000040 b4 99 11 be 61 5c 88 be db 7c 90 3c c2 4e 7b be
       -0.1421879 -0.2663298 0.01763766 -0.24541762
000050 7c e3 50 be b8 9c b3 bd e6 d0 9b 3b e2 d6 ae be
       -0.20399278 -0.08770126 0.0047551272 -0.34148318
000060 cc 72 95 be 61 4b e8 3c 3d 5a 83 be 9d 97 ca 3c
       -0.29189146 0.028356256 -0.25654784 0.024730498
000070 55 de f0 bc cb ad 7f 3c b7 4a d9 3c 1a e5 23 3c
       -0.029402891 0.0156054 0.026524885 0.010003353
000080 7f 66 63 be fa 8e 22 3d 98 ba 12 bd bd 27 09 bf
       -0.22207068 0.039687134 -0.03582248 -0.5357626
000090 a8 ae 5c be b7 10 f1 3c 18 2a 0d bd 80 67 e5 3c
       -0.21551001 0.029426916 -0.03446397 0.028003454
0000a0 96 5d c4 be 7a ab 8d 3c 28 3e 4d 3d f6 cd 24 3b
       -0.3835265 0.01729368 0.050108105 0.0025147176
0000b0 f5 21 b3 be 1e 0c 8b be 50 56 59 3d 13 29 2d bf
       -0.34986845 -0.27157682 0.05306083 -0.676408
0000c0 33 d8 40 3d 9c cc 4c bf ab e2 48 be ac d5 87 be
       0.047081184 -0.7999971 -0.19617717 -0.26530206
0000d0 e4 57 8b be 80 8c 11 bf bf c9 b7 be fb 40 5b 3b
       -0.27215493 -0.5685501 -0.35896108 0.003345548
0000e0 04 a4 c9 3d 89 6d cd 3c 24 01 88 be 5b 6f 7e 3c
       0.098457366 0.025076644 -0.2656337 0.015529479
0000f0 e9 17 49 be 0e 7a 85 bd 40 e2 40 be 0f f8 b5 be
       -0.19638027 -0.06517421 -0.18836308 -0.35540816
000100 74 7b 3d be af d6 4c 3c a1 31 2f be b5 ff 8d bd
       -0.18504125 0.012502356 -0.17108776 -0.06933538
000110 b4 3d 5d be 98 9d 8a 3d 03 df 8f be b2 3a 0a be
       -0.21605569 0.0676834 -0.28099832 -0.13498953
000120 58 54 6a be aa 41 17 bd 2c 2b 1b 3d ce 0a 5d be
       -0.22883737 -0.036927857 0.03788297 -0.21586153
000130 1a 2c 7d be 04 e8 62 3d f2 09 61 bf 5a 85 8a be
       -0.24723855 0.05539705 -0.879058 -0.27054864

1.linear2.weight f4 [80, 80]
000000 79 bd 2d 3f 1e 3c ce 3e 6b a8 ee 3c eb 8a 2b 3e
       0.6786724 0.4028024 0.029133042 0.16752212
000010 ab 64 20 3e 58 3b ba 3e 06 e2 80 3f c6 82 1b bf
       0.15663402 0.363734 1.0068977 -0.6074642
000020 72 9f 9b bb 3c fb dd 3c 48 ea 22 3d e1 7c 67 3c
       -0.004749232 0.027097337 0.03977421 0.014128895
000030 cf 41 47 3d 9c 2e 38 3d ed dc b3 3e cd 4c 80 bd
       0.048646744 0.044966325 0.3512949 -0.062646486
000040 83 ec 2c bc 65 a5 78 bd 02 d6 c8 bf 82 a1 8d bd
       -0.010554436 -0.060704608 -1.569031 -0.06915571
000050 95 ae a8 3e 98 2c 2b bd 81 95 7f 3f 5f 5c b5 3d
       0.32945696 -0.041790575 0.998375 0.08855509
000060 fc c8 b3 bd d8 7d 94 bf 11 bb 1b 3d 81 e7 b0 bf
       -0.08778569 -1.1600904 0.038020197 -1.3820649
000070 b8 59 10 3e 3c e7 3f be b9 15 e1 3d 64 b7 a3 3d
       0.14096725 -0.18740553 0.109904714 0.07993963
000080 5a 4e 80 bd 73 ca 1b bf 82 4e 42 3e 9c 09 74 3e
       -0.062649444 -0.6085579 0.18975261 0.2383179
000090 e3 bd ad bd 11 36 a7 be 7b 6e 8b be 88 42 45 bf
       -0.08483484 -0.32658437 -0.27232727 -0.77054644
0000a0 3e 53 0a 3d 48 e8 10 40 24 f3 a0 3f 18 5c 12 40
       0.033770792 2.2641773 1.2574201 2.286871
0000b0 e9 17 80 3e ac 17 57 3d 4d f0 09 bf d5 a0 a0 bd
       0.25018242 0.05251281 -0.53882295 -0.07843176
0000c0 56 78 f0 bb 7e fb 0e 3e b9 85 e9 b9 e3 99 d0 3c
       -0.007338564 0.13963124 -0.00044540854 0.025464004
0000d0 26 3a 85 bc 30 36 c8 be 10 72 46 3f 1d 58 db 3e
       -0.016263079 -0.39103842 0.77517796 0.42840663
0000e0 a1 e5 80 bf bb 54 ca bd 67 63 a5 bd 8e 8c bd 3f
       -1.0070077 -0.09879442 -0.080756 1.4808519
0000f0 0f 30 df 3e 44 72 6b bd f5 65 d2 3a 6d ad 0e 3d
       0.43591353 -0.05748202 0.0016052114 0.03483336
000100 19 4a 89 3c 7b 59 95 bf c9 14 de 3c 9b c2 af 3d
       0.016758965 -1.1667932 0.02710952 0.0858204
000110 48 1f ea 3e b3 21 20 3f f2 95 63 bf 11 69 a6 be
       0.4572699 0.6255142 -0.88900673 -0.32502034
000120 f7 e6 f1 bc 99 65 44 be 5f 00 b5 3e d5 d6 9e bd
       -0.029529078 -0.19179381 0.35351846 -0.0775582
000130 d4 11 e9 bb bb 66 51 3f c9 fb ad 3d b2 76 c8 bc
       -0.007112721 0.8179738 0.0849529 -0.02447066
000140 86 43 96 3d 1b 94 39 3d 23 43 2b bd a1 46 79 bd
       0.07337098 0.04530726 -0.041812073 -0.060858373
000150 8b 1a 64 bd 3e 25 d2 3d f2 de 92 bd c3 53 5d bd
       -0.055689376 0.1026101 -0.0717143 -0.05403496
000160 9c 8d 49 bd 79 29 db 3d 77 7b d0 3d b1 e5 13 bd
       -0.049207315 0.1070127 0.10179799 -0.036107723
000170 be 42 6a 3c e7 72 ba bd 23 c3 a7 bd 4b 3d 23 bd
       0.014298139 -0.09103947 -0.08191516 -0.039853375
000180 68 d6 bd 3d 8c e3 02 3d ae 60 bd bd 50 ba 1d bd
       0.0926941 0.031955287 -0.09246956 -0.03850776
000190 48 28 8c 3b aa dd 26 bd dc 4f 31 bc fb 54 3c bd
       0.004277263 -0.04073874 -0.010822263 -0.04597948
0001a0 a7 62 1e 3d 05 10 51 bb e4 4a 9e bd 37 2b 0c 3d
       0.0386683 -0.0031900418 -0.07729128 0.0342209
0001b0 60 61 ba 3d 30 d8 94 3d f9 f2 d3 3c 6c 66 80 3d
       0.09100604 0.07267797 0.025872694 0.062695354
0001c0 69 78 66 bd 67 48 cc bd eb 9e ee bc 8a fd 9f 3d
       -0.056267176 -0.09974747 -0.029128512 0.078120306
0001d0 8d 9d 8b bd db 48 54 bd ad 4e a5 bd 80 69 58 bd
       -0.0681716 -0.051827293 -0.08071647 -0.052834988
0001e0 00 b5 0c 3d 42 09 50 bc 55 10 61 3d 4b 9c d3 3d
       0.034352303 -0.01269752 0.054947216 0.10332545
0001f0 60 69 7c bd ec 02 c5 3c 5d 0a 8b 3d 31 fa c7 3d
       -0.06162393 0.024049245 0.06789086 0.09764517
000200 a6 2e d4 bc 7e 43 cd bd ba be c4 bd 1e 5c 89 3d
       -0.02590115 -0.10022639 -0.09606691 0.06707023
000210 10 1e c4 b9 df 6a 9d 3d ab f1 69 3c 1f 17 9a 3d
       -0.00037406432 0.076864 0.01427881 0.07523941
000220 a7 0e c7 bd 6e 9f bb bd 55 3b 9a 3d 36 52 da bc
       -0.097195916 -0.09161268 0.07530848 -0.02665053
000230 03 2a 1d bd 6b 35 48 bd ae ed da bd bf 98 ba 3d
       -0.038370144 -0.04887907 -0.10689865 0.09111165
000240 6b 33 91 3d 5c 42 5a bc 17 02 34 3d c7 ab dd bd
       0.07089885 -0.013321485 0.043947306 -0.108237796
000250 3f b8 06 bd 91 46 1c bd e2 ad 94 3d 83 73 9f bd
       -0.032890555 -0.038153235 0.07259728 -0.07785704
000260 fe ea 9e 3d cd 2b fd 3c 46 82 81 bd cf 2b b5 3d
       0.07759665 0.030904675 -0.06323676 0.088462465
000270 2a 8a 05 bd 4e 57 c8 3d 01 af 38 bd cd c2 8a bb
       -0.032602467 0.09782277 -0.04508877 -0.004234648
000280 2a f2 01 3d 45 a6 22 3d 58 e3 98 bd 3d 1c d3 3d
       0.031725086 0.03970935 -0.074652374 0.103081204
000290 f5 48 c1 bd dc bc 71 3d b8 bf 42 3d 37 b1 d1 3d
       -0.094377436 0.059018 0.04754612 0.10238879
0002a0 48 21 ef 3b 54 20 d7 3d 78 cb 7d bc ba b3 db bd
       0.0072976686 0.10504213 -0.015490405 -0.107276395
0002b0 11 ec 05 bb 91 33 c9 bd a6 b6 a3 bd 20 a6 da bd
       -0.0020434896 -0.09824289 -0.07993822 -0.10676217
0002c0 65 6f be bc 04 ef de bd 27 11 a7 bd 04 4f a8 bb
       -0.023246476 -0.10885432 -0.081575684 -0.0051363725
0002d0 63 f7 71 3c e4 d9 cf 3d 9b 3b 74 3d ef 92 9b bd
       0.014768454 0.10148981 0.059627157 -0.07596385
0002e0 c4 a8 e5 bc c7 8b 17 bc 64 cc 81 bc 3a 5b 0e bd
       -0.028034575 -0.009249634 -0.015844531 -0.03475497
0002f0 28 65 8a bb 7c 08 95 bd 75 d0 a3 bd 0e 0e 88 3c
       -0.0042234845 -0.07277009 -0.079987444 0.016608264
000300 75 4e c5 3d 1e 69 a2 3d dc af 85 3c a6 f9 70 bc
       0.09634105 0.07930206 0.016319208 -0.014707958
000310 e1 cf 63 3d 08 da 9d bd 5f 88 c6 3d 0e 81 77 3d
       0.05561817 -0.07707602 0.096939795 0.06042581
000320 b2 79 9e 3d f6 35 b1 3d b8 8d 78 bd 94 90 9d bd
       0.07738055 0.0865287 -0.06068203 -0.07693592
000330 97 9e c5 bc 97 b6 83 bd 3e ee db bd 45 bf 48 bd
       -0.024123473 -0.064313106 -0.107388005 -0.049010534
000340 d9 b9 e7 bc 78 df e2 bd b7 e5 a0 bb 7d 7f 23 bd
       -0.028286861 -0.110777795 -0.0049101966 -0.039916504
000350 d6 da d0 bd 7e 30 dc bd 20 10 c9 3d 49 8d 05 bd
       -0.1019799 -0.10751437 0.09817529 -0.032605443
000360 8f f6 9c 3c d4 33 8e 3c 11 4c bd 3c 6e 26 7b bd
       0.019160537 0.017358698 0.02310756 -0.061315946
000370 de 3f 20 bd af 71 6a bd c8 75 84 bd 0e 3c 4f bc
       -0.03912341 -0.057237323 -0.064677775 -0.0126485955
000380 03 cb c6 bd 29 45 44 3d e2 8b 13 bb a7 cf 6f bd
       -0.0970669 0.04791752 -0.0022513797 -0.058547642
000390 75 5f 3b bd 65 ad 7c bd 1f 3b dd 3d 54 a8 3c 3c
       -0.04574533 -0.0616888 0.10802292 0.011514742
0003a0 1d 19 cb bd 71 b0 40 3d 1a 34 d6 bd 86 43 e3 3c
       -0.09916899 0.047043268 -0.10459156 0.027742159
0003b0 79 dc 93 3d 6b 91 84 bc 60 28 fc bb e6 31 f8 3c
       0.07219786 -0.016182622 -0.0076952428 0.03029723
0003c0 75 9a 89 3f 0c 0f 5b bf 3d a5 42 be c5 51 cc 3d
       1.0750262 -0.85569835 -0.19008346 0.09976534
0003d0 25 12 a5 bd 2a 2c 3f 3f 91 0c d5 3e 29 6b 71 be
       -0.080601014 0.74676764 0.4161115 -0.23576035
0003e0 60 cb 89 bf 7c 7f 89 bd 51 94 60 be 1f dd 70 bd
       -1.076519 -0.06713769 -0.21931578 -0.058804628
0003f0 32 a8 24 3d 18 ff e0 3e 8c 40 84 3e fe 01 b1 bd
       0.040199466 0.4394462 0.25830495 -0.08642958

1.linear2.bias f4 [80]
000000 a7 e7 e4 3c ef aa b9 bd 6e 30 d9 bd de 8b 96 3c
       0.027942492 -0.09065806 -0.1060494 0.01837724
000010 64 e6 a0 bd 8e 5d eb 3d c8 a7 09 3e 83 e8 8f 3c
       -0.078564435 0.114924535 0.1344291 0.017566925
000020 4a 15 9c be 79 30 be 3c c3 73 26 3e c0 e2 a5 be
       -0.30484992 0.023216473 0.16255097 -0.3239956
000030 0a 1d 9f bd 4f f5 69 bd 9d 57 5c bd f1 37 55 3d
       -0.07769211 -0.05711871 -0.053794492 0.052055303
000040 d1 51 46 bd fe ae f5 3d 10 c3 13 3e c1 8b 4f bd
       -0.04841787 0.11996268 0.14429879 -0.05067039
000050 61 0b ba bd 09 82 d9 bd 09 78 d6 bd 8a 32 98 be
       -0.090842016 -0.10620505 -0.10472114 -0.29726058
000060 8d 64 0a be 7a ed d9 bd 25 47 d6 be 45 6c 1d 3d
       -0.1351492 -0.10640998 -0.41851154 0.038433332
000070 75 76 9f bd fc f4 cd bd 66 55 96 bd c6 21 68 bd
       -0.07786266 -0.10056493 -0.07340507 -0.056672834
000080 63 45 5a 3d ac 0f d3 39 dc ba d0 bd a3 6b a1 be
       0.05328883 0.00040256733 -0.101918906 -0.31527433
000090 b1 fa b9 be d6 77 0f be db 43 56 3e 8a 92 58 bd
       -0.36324075 -0.14010558 0.20924322 -0.052874126
0000a0 16 b2 ec bc bd d1 2d 3e 3e 55 52 bd 26 71 38 bd
       -0.028893512 0.1697454 -0.051350825 -0.04502978
0000b0 2e f6 43 be cb 37 5a bd 38 0a 8d ba 64 2a 36 bc
       -0.19136879 -0.053275865 -0.0010760492 -0.011118505
0000c0 b9 df 1c 3e d3 b9 76 bd d6 17 6c 3e 71 3f b3 3c
       0.15319718 -0.06023581 0.23055968 0.021880837
0000d0 a2 e7 3e 3e c0 c5 be 3e aa 13 60 3e 36 9e d5 bc
       0.18643048 0.37260246 0.21882501 -0.026076417
0000e0 e1 23 d8 bd 6d 13 95 bd 0f d2 bd 3e d0 35 b1 bd
       -0.10553718 -0.07279096 0.37074324 -0.08652842
0000f0 43 04 ca bd 5f 08 86 3e 0d b2 db 3e 78 0d bb 3d
       -0.09864094 0.26178262 0.4290928 0.09133428
000100 05 5d ae 3e de 84 6c be ec 22 b9 bd 15 49 19 be
       0.34055343 -0.2309756 -0.09039864 -0.14969285
000110 83 18 16 be 94 c8 b6 bc 5a e7 d9 bd f6 f6 4b bd
       -0.14657788 -0.02231244 -0.1063983 -0.049796067
000120 17 58 40 be 0d b2 57 be e9 45 ca bd d8 a6 ab bd
       -0.18783604 -0.21064015 -0.098766156 -0.08381432
000130 e2 30 92 3e 7d 81 60 be c4 1a c8 3c 11 19 91 be
       0.2855292 -0.21924396 0.024426825 -0.28339437

1.linear3.weight f4 [100, 80]
000000 81 57 11 bd 73 f1 8b 3d e4 87 34 3c f0 0e f8 bc
       -0.03548384 0.06833162 0.011018727 -0.03028056
000010 7a 50 d9 bb ea a5 ba bc 49 1c cd 3d 12 05 df bd
       -0.006631908 -0.022784192 0.100151606 -0.10889639
000020 7b 31 d2 3d 32 1d 9b bc ec 32 c5 3c e6 1a 5c 3c
       0.10263344 -0.01893482 0.024072133 0.013434147
000030 28 8d 2b 3d 60 94 eb 3c c2 54 45 bd f0 1a e6 bd
       0.041882664 0.028757274 -0.048176534 -0.11235607
000040 10 8f 2d 3d 63 70 95 3d 40 7b a6 bc 8b a0 33 bd
       0.042372763 0.07296827 -0.020322442 -0.043854278
000050 1f e5 9d bd c3 d8 75 bd 4e b9 b3 bd f7 c4 cc bd
       -0.07709717 -0.060021173 -0.087755784 -0.099985056
000060 e5 49 f1 bc 74 4b 8d 3d 37 c7 b1 bd c7 9b 71 bd
       -0.029454181 0.06899157 -0.08680575 -0.05898645
000070 e3 bd d0 bd 74 ba 52 bd fb d1 3e 3c fc 5d 8d bd
       -0.10192468 -0.051447347 0.011646743 -0.06902692
000080 d3 a6 bc 3d a4 85 c2 3c ef 39 c5 3d a5 cf bf bd
       0.09211507 0.023745365 0.096301906 -0.09365777
000090 03 a9 05 3d ca 4c a1 bd a8 75 6b bd 10 95 48 3d
       0.032631885 -0.078759745 -0.057485253 0.048970282
0000a0 43 63 5a 3d 9e 7c 41 3d b2 e1 84 3a 07 eb 96 3d
       0.05331732 0.047237985 0.0010138063 0.07369047
0000b0 b3 8d c1 3c 4b d1 e4 bc 78 39 4f bd 12 87 0f bd
       0.023627138 -0.02793183 -0.050591916 -0.035040922
0000c0 ba eb ca ba fd 66 e4 3d 47 be 70 bd 9c 68 46 3d
       -0.0015481629 0.11152456 -0.058775213 0.048439607
0000d0 a0 58 05 3d 8c d1 24 3d 88 48 1d bd 01 c9 53 3d
       0.032555223 0.040238902 -0.03839925 0.051705364
0000e0 43 d3 97 3d ad e7 e1 3d 5f 18 81 bd 0c 56 29 bd
       0.07413342 0.11030517 -0.063034765 -0.041341826
0000f0 fb 12 c7 3c 7d ae b4 3c be a5 95 3d 3f 82 c0 bd
       0.024301043 0.022055859 0.073070034 -0.093998425
000100 92 0c e5 3d 03 03 b7 bd 95 32 e1 bc e9 13 8f bc
       0.11184038 -0.08936121 -0.02748994 -0.017465549
000110 fb d5 8f 3d 90 b6 21 3a 32 d5 4a 3d 61 de aa bc
       0.070232354 0.00061688665 0.049519725 -0.020857992
000120 d0 57 14 3b 6a c6 4f 3a ea 63 ad bd a7 5e 3e 3b
       0.0022635348 0.00079259893 -0.08466323 0.0029048116
000130 55 e0 c5 bd b5 3b 6f bd f0 c9 98 bd 2f 44 98 bd
       -0.096619286 -0.05840655 -0.074603915 -0.0743488
000140 d3 70 66 3b 4e 1e 69 3d 16 49 a5 bc 03 a2 bf be
       0.0035162463 0.056913666 -0.020176452 -0.37428293
000150 72 05 f2 bd 89 eb 83 3d d8 7d 0d 3e 90 26 5b 3e
       -0.11817445 0.06441409 0.13817537 0.21401429
000160 22 88 44 be f7 2a 59 3f 79 3f 3e bf 9a a3 36 bf
       -0.19192556 0.84831184 -0.743156 -0.71343386
000170 07 e7 7c bd 96 3d 5c bd 7a 02 97 3d d0 86 7c 3b
       -0.061743762 -0.05376967 0.07373519 0.0038532503
000180 4e 37 92 3d bd c8 95 bd 49 22 31 be e3 49 5d bb
       0.07139455 -0.073136784 -0.17298235 -0.0033765964
000190 4e b1 be bd ed 6e 9c be cd 2f 8c bd cd 90 fd 3d
       -0.09311162 -0.3055338 -0.06845055 0.12381134
0001a0 b4 87 b1 bd 4b af c3 3d 32 91 41 3e 36 25 d8 3e
       -0.086684614 0.09554919 0.18903044 0.4221589
0001b0 ca 6d 5c bd 81 99 40 bb 7f 62 f4 3a 13 70 d8 3c
       -0.05381564 -0.002938837 0.0018645077 0.026420629
0001c0 2e c9 6a 3e 5e eb ce 3e 39 f5 90 bc 6d 38 e2 3f
       0.22928306 0.40413946 -0.017695056 1.767347
0001d0 f3 9c 73 bf 6b d4 0c bc c9 3f 1e 3e 7a fb 3c 3d
       -0.9516136 -0.008595566 0.1545402 0.046138264
0001e0 99 54 cc bc fd d6 61 bf de c5 0a 3f 82 8a 57 bd
       -0.024942683 -0.8821867 0.5420817 -0.052622326
0001f0 5e 46 d7 3d 5b e4 b6 3d c5 4d e6 be 2b 24 df 3d
       0.10511468 0.08930274 -0.44981208 0.1089557
000200 5f 0b 2d bf 8f 28 96 3d e9 d1 64 3e 2d 88 c2 3e
       -0.67595476 0.07331955 0.223457 0.3799452
000210 17 59 de be cb 39 26 bf 27 ab a1 3d 40 46 08 be
       -0.43427345 -0.64931935 0.07893973 -0.13308048
000220 37 52 78 3d 01 85 ca 3d 0c d5 78 bf 15 47 8d 3d
       0.06062528 0.0988865 -0.97200084 0.068983234
000230 71 77 b4 3f f4 89 a9 3e 5a 7b 8a bf 9f cd da bc
       1.4098951 0.33113062 -1.0818894 -0.026709376
000240 70 96 9c be 35 60 fb 3e 91 95 30 bc c9 0f af 3d
       -0.30583525 0.49096838 -0.010777847 0.08547933
000250 fb bc c6 bd d9 09 ad bd bf c7 12 3f 27 41 0d 3d
       -0.09704014 -0.08449144 0.5733604 0.034485962
000260 27 6c a0 3c 0a 6a 05 bf be a9 cb be 28 68 d3 bd
       0.019582821 -0.5211493 -0.3977794 -0.103226006
000270 f7 fe 7c bf 7b 1b 8e 3c 26 41 65 3f 2f 4f f3 3c
       -0.98826545 0.017347088 0.89552534 0.029700844
000280 d1 99 87 3f 04 f4 89 bd 76 2e f7 bc 28 9c f3 3e
       1.0593816 -0.067359954 -0.030173521 0.47580075
000290 e6 49 17 3c f2 13 a3 3e 2c 5e 92 3e 73 d3 c6 be
       0.009233927 0.31851155 0.28587472 -0.38833198
0002a0 c7 2d 06 bd df a3 0a 3f 95 28 ee bd 15 9e 2a 3e
       -0.0327585 0.541563 -0.11628834 0.16661866
0002b0 e7 e8 c1 bc 4e 82 ca bd a9 07 a3 bd be a8 c7 be
       -0.023670627 -0.09888135 -0.079604454 -0.38995928
0002c0 74 85 98 3d 7f 7d 75 be a7 69 39 bf 03 fe d3 bc
       0.07447329 -0.23973654 -0.7242684 -0.025877958
0002d0 2c 87 8a 3c 96 8b 99 3e 38 47 18 3c 2a 0a 60 3d
       0.016910158 0.29989308 0.009294324 0.054697193
0002e0 ef 7d a2 bd f1 57 35 3d f6 0b ed bd c4 d5 03 3f
       -0.07934176 0.04427332 -0.11574547 0.51498055
0002f0 1f a5 b2 3b 80 91 3f bd 04 81 b4 bc 53 eb 97 bd
       0.005451813 -0.04676962 -0.022034176 -0.074179314
000300 27 89 9b 3e 0d a3 d5 3f 47 d5 c5 bc 95 b3 39 be
       0.30378076 1.6690384 -0.02414955 -0.18134911
000310 50 50 10 bc f2 f2 19 bc ce c4 1c bf d1 f7 c8 bc
       -0.0088082105 -0.009396302 -0.612378 -0.02453223
000320 2b bf 64 bd 97 63 18 3f 13 b8 03 3d 96 f9 11 3e
       -0.055846374 0.5952696 0.03215797 0.14255366
000330 ba 0e 42 bd fc 0b 8a bd 56 dd 0e 3f 35 12 c2 3e
       -0.047377326 -0.06740567 0.5580648 0.37904516
000340 2b 81 02 3e a1 1c be bc cf 95 0a be 03 86 2c 3f
       0.12744586 -0.02320701 -0.1353371 0.67391986
000350 84 64 00 bf 44 83 b5 3d b2 75 0d 3f 23 de ae 3d
       -0.50153375 0.088629276 0.55257714 0.08538463
000360 65 3f 5e 3d 94 79 33 bd b7 eb 23 bf d3 32 7e 3d
       0.054259676 -0.043817118 -0.6403155 0.06206019
000370 21 f2 87 3f d0 2f b7 bf 7a f4 5f bd de 2b 2d bf
       1.0620767 -1.4311466 -0.05467651 -0.6764506
000380 f9 57 2a bf 30 32 0f 3d fd 6c 95 bd 7d b3 a3 3e
       -0.66540486 0.034959972 -0.072961785 0.31972876
000390 24 81 00 3d a9 5c 7d bd fe c8 30 be 7b 4d 35 3d
       0.031373158 -0.061855946 -0.17264172 0.044263344
0003a0 27 80 ec 3d 86 10 a1 3e 30 d8 ca bd f2 05 1f bd
       0.115478806 0.3145792 -0.09904516 -0.03882403
0003b0 ef 1e 8b be 80 99 0b be 72 fb 05 40 a8 c5 2f 3e
       -0.27172038 -0.13632774 2.093472 0.17165244
0003c0 1c 66 a1 3f 37 ff 26 3d fa 2e d2 bc e7 1b e5 3e
       1.2609286 0.040770736 -0.025657166 0.4474785
0003d0 7e d7 00 3d 7d ca 9a 3e 00 67 86 3e 98 5c e9 3e
       0.03145551 0.3023261 0.26250458 0.45578456
0003e0 88 0d d2 3d 6b 7e 6e 3f 69 a7 e3 3e db a8 ab 3e
       0.10256487 0.9316165 0.4446366 0.33527264
0003f0 e5 42 e3 bd 9a 56 19 3d 4c fd 8b 3c 70 f0 cb be
       -0.110967435 0.037436105 0.017088555 -0.39831877

1.linear3.bias f4 [100]
000000 d0 e9 9e bd 17 eb 71 3d 66 f1 a4 be 69 e6 f1 be
       -0.0775944 0.05906209 -0.32215422 -0.47246101
000010 0c be 6d be ce ed 9c be b1 3d e5 bd da bb ad bd
       -0.23217028 -0.3065018 -0.11193407 -0.084830955
000020 5a ee 28 be 52 89 a1 be e8 36 83 be 02 12 b5 bd
       -0.16497174 -0.3155008 -0.25627828 -0.08841325
000030 4f de 17 bf 11 a9 f9 bd 36 3b 8a bf 4f fa 7e bd
       -0.5932359 -0.1219045 -1.079932 -0.06225043
000040 55 1f df bd 93 ad c1 bd 08 8d 5a be 9a 8f 9e be
       -0.10894648 -0.09456935 -0.21342862 -0.30968934
000050 e7 01 a1 bd da 8f 66 be de 01 98 3c 89 7a e4 bd
       -0.07861691 -0.22515813 0.018555578 -0.11156184
000060 90 34 b8 be e1 e3 45 be 81 65 00 bf 44 5b fc bd
       -0.35977602 -0.1932521 -0.5015488 -0.12322095
000070 c1 b5 65 3e 75 ec a6 bd 19 fb ea bd d9 bb 76 bd
       0.22432615 -0.08150569 -0.11473674 -0.06023774
000080 e1 4e 62 bf 65 ec f1 bd 09 f4 e9 bd ac 3b 7f bf
       -0.8840161 -0.11812667 -0.11423499 -0.9970043
000090 da fa e3 3e b3 9a ba bd d5 29 e9 3e e3 04 de bd
       0.44527322 -0.09111538 0.45539728 -0.10840776
0000a0 da 2d 84 bf 86 94 64 be c8 cc 7b bf 3a 0f 25 be
       -1.0326493 -0.22322282 -0.98359346 -0.1611909
0000b0 5a 27 dc bd a4 32 f9 bc c2 a4 81 be b2 69 18 be
       -0.10749693 -0.030419655 -0.25321013 -0.1488407
0000c0 e8 28 36 bd 37 47 1a be a0 8f 7d bf 09 39 a2 bd
       -0.044472605 -0.15066229 -0.9904728 -0.07921035
0000d0 7b ce 91 be 9b ae 61 bf 5d 9d db 3e 5f 66 7d be
       -0.28477845 -0.8815705 0.42893496 -0.24746083
0000e0 9b d8 1e 3c 84 a7 5a be 63 21 6b bd 8a 06 17 be
       0.009695197 -0.21352965 -0.057404887 -0.14748588
0000f0 f4 1d 2b 3d 4f 6f 47 3d 39 1d 04 be d0 19 0a be
       0.041776612 0.048690137 -0.12901773 -0.13486409
000100 28 a9 9f be 5e a7 fb be 02 ea 94 be 72 2a 5d 3c
       -0.31183743 -0.4915113 -0.29084784 0.013498889
000110 fb 2f fb bd 51 11 0f 3e dd 0f ca bd fd fe 92 bd
       -0.12265011 0.1397145 -0.09866307 -0.071775414
000120 5f b2 08 be 29 eb da bd d1 f6 a0 be 7e 27 85 be
       -0.13349293 -0.106893845 -0.31438306 -0.26006693
000130 88 bc ae 3d c3 9f a3 3d bf 0a e8 be 08 e3 ef bd
       0.08532053 0.079894565 -0.453207 -0.11713225
000140 7a 9d f4 be 92 b8 95 bd b1 17 8a bd 91 d2 ab be
       -0.47776395 -0.073105946 -0.067428 -0.33559087
000150 b1 16 2a bf 92 15 27 be be a1 17 c0 74 3d c3 bd
       -0.66440874 -0.16316822 -2.369247 -0.09533206
000160 ad 76 e9 bd c7 89 2b bd 59 46 03 be 9c d7 bc 3e
       -0.11399589 -0.04187944 -0.12819804 0.36883247
000170 be f6 fa bd d9 b8 f6 be 16 d3 29 be 16 3b fa bd
       -0.122540936 -0.48187903 -0.16584429 -0.12218301
000180 a5 77 07 bd 74 8a e5 3e db 0e 24 3b 9d d5 2a bc
       -0.033073086 0.44832194 0.0025033269 -0.010426906

1.linear4.weight f4 [80, 100]
000000 f3 27 c4 3c fd 92 eb 3e c2 92 d2 bf 06 f1 9a be
       0.02394483 0.4601058 -1.6451037 -0.3026201
000010 72 a1 70 3e e1 9b e4 bd 2e d3 ea bf 3f b2 a4 3d
       0.23499086 -0.11162544 -1.8345697 0.0804181
000020 7b 6f ec 3c 9a 56 5e bf 35 a2 b9 bd 86 aa a9 bd
       0.028861752 -0.86850893 -0.09064142 -0.08284478
000030 cd d5 9a bf a8 80 72 3d 5f 7d 8a 3c 4c 20 b8 3d
       -1.2096497 0.059204727 0.016905485 0.08990535
000040 8a ed b3 bc 21 59 ec 3c f1 66 44 c0 55 48 7d 3f
       -0.021963853 0.028851094 -3.068783 0.98938495
000050 f2 55 d6 3d 96 ae 84 3e 53 23 48 bf c0 5d 6d bd
       0.104656115 0.25914448 -0.781789 -0.057950735
000060 3b 2e 63 bf dd ae cf 3d df 5c 0c 3f 5d bb 2b 3f
       -0.8874242 0.101407744 0.5482921 0.6708277
000070 96 d3 23 bf 05 67 d8 3d f4 b9 fe bc 43 5a 64 bd
       -0.6399473 0.105665244 -0.031094529 -0.055750143
000080 83 72 8e bf 48 e4 14 bd aa 20 7b bd f9 a9 d4 bf
       -1.1128696 -0.03635052 -0.061310448 -1.6614372
000090 73 27 99 bf 62 66 80 3d 7a 45 82 c0 8c f6 2a 3d
       -1.1965164 0.06269528 -4.070981 0.04173903
0000a0 db 64 df be d6 94 b0 be 96 d1 8c bf 59 a4 78 bd
       -0.43631634 -0.34488553 -1.100146 -0.06070361
0000b0 29 b5 5a 3d fd 30 bf bd 5e 3e b5 bf d4 c8 02 bd
       0.053395424 -0.09335516 -1.4159658 -0.031929806
0000c0 93 0e 82 3d c0 8f ca 3d f4 c1 ce bf d5 a4 13 3d
       0.06350436 0.098906994 -1.615294 0.036045868
0000d0 b9 68 14 3f 4d 1e b6 bf 53 d4 14 c0 c6 02 a4 3d
       0.57972294 -1.4227997 -2.3254592 0.080083415
0000e0 46 c0 25 bf 4e 5c d5 bf 57 a8 7a 3d 09 b3 c9 3c
       -0.6474651 -1.6668794 0.061195698 0.024621503
0000f0 86 8e 94 be bb 49 f8 bf 3f ca 27 c0 e1 84 61 3d
       -0.29014987 -1.9397501 -2.6217191 0.055058364
000100 36 98 9e 3d c3 88 11 3f 31 8c dc be ab 17 69 3e
       0.07743876 0.56849307 -0.43075708 0.22762935
000110 58 ba df 3c e3 aa 1a c0 07 d5 df bc 33 47 c5 3c
       0.027310535 -2.41668 -0.027323259 0.024081802
000120 ae 4e 36 bd 9c 77 36 bd 1e 63 84 3f 9d 01 2c 3f
       -0.04450863 -0.044547662 1.0342748 0.6718996
000130 fe fb 9f bf 9e 7e da 3e 72 7a 64 3f b7 f3 62 3c
       -1.2498777 0.42674726 0.89249337 0.013852051
000140 f8 54 5a c0 2f 3d 63 bd b4 2d c9 bc 31 f2 7f 3f
       -3.411436 -0.05547827 -0.024557926 0.9997893
000150 a3 16 11 c0 83 38 7d bd 33 0d 4a 3e 6d e4 7e bd
       -2.2670066 -0.061821472 0.19731598 -0.062229563
000160 90 ac 15 3c 81 51 86 3d a5 95 d0 bf 23 34 fb bf
       0.00913538 0.065585144 -1.6295668 -1.9625286
000170 5e 86 41 3d 13 1b 1b c0 c0 07 5a 3f de f4 66 bd
       0.047247283 -2.4235275 0.85168076 -0.056385867
000180 bc 10 7a bd a6 ca 9e c0 d1 b6 f2 be 68 83 d3 bd
       -0.061051115 -4.9622374 -0.47405103 -0.10327798
000190 ff ad af 3d 22 86 bf bc d8 5e 12 bd d5 31 a7 bd
       0.08578109 -0.02337939 -0.03573498 -0.081638016
0001a0 f7 d8 19 be ff f2 b4 bd 80 d5 5b 3d 0d aa 58 3c
       -0.15024172 -0.0883541 0.053670406 0.013224137
0001b0 10 2d 81 3d 1f 34 64 3c cc 34 a2 bc 40 50 dd 3c
       0.06307423 0.013928442 -0.019800566 0.027015805
0001c0 95 4e d9 bc 9d e5 51 3d 80 31 85 3c 35 c9 bc bd
       -0.026526729 0.051244367 0.016258955 -0.09218065
0001d0 33 42 0a 3b ed 72 9a bd 58 d9 92 3d 63 89 e0 bc
       0.0021096587 -0.075414516 0.07170361 -0.027409261
0001e0 a0 d1 ca bc d5 e5 7b bd 70 07 86 bd ca 28 14 bd
       -0.02475816 -0.06149848 -0.06544387 -0.036171712
0001f0 8b d6 17 bd e0 74 58 3d a5 d5 17 3c 6e e7 10 3c
       -0.03706984 0.052845836 0.009267245 0.00884424
000200 6b 69 db bd 4a 49 03 3d 0d af ac 3d c0 92 ee bc
       -0.10713466 0.032052316 0.08431826 -0.02912271
000210 4f d7 cd bd e8 d8 bd 3d 1a 47 e4 bb a6 66 69 bd
       -0.100508325 0.09269887 -0.006966484 -0.05698266
000220 65 89 82 bd 00 bd a1 3b 5b dd 8b 3c ba 2f be bc
       -0.06373862 0.0049358606 0.017073324 -0.023216117
000230 77 f0 b3 3d 78 7c 0f bc e5 f3 2c bd ba 16 e0 bc
       0.087860994 -0.008757703 -0.042224783 -0.027354587
000240 f3 79 f1 bc 88 17 cc bd 9a 00 1b 3c 00 07 1b bc
       -0.029477095 -0.09965426 0.009460593 -0.009462118
000250 fa b4 9e 3d 6d 3b d9 3c 0b 9a 63 3d cb a4 af bd
       0.07749362 0.026517594 0.05556683 -0.08576354
000260 a4 80 94 bd e2 2b 77 3d 3d a9 12 3d ea c2 97 bd
       -0.07251099 0.060344584 0.03580593 -0.07410224
000270 20 1c 2b be 52 e4 aa bd b3 ee fb bb 6d 68 ad bd
       -0.16709948 -0.0834433 -0.0076883673 -0.08467183
000280 ae 9d f6 bd 25 36 55 3c 46 7a f8 bc b3 2f 16 bd
       -0.12041794 0.013013397 -0.030331742 -0.036666583
000290 24 5e 4d 3d 45 82 53 3d b7 db 0d 3d 3f c8 98 3b
       0.050138608 0.051637907 0.034633365 0.004662543
0002a0 b0 f0 93 bd b6 83 9d bd b0 38 2c 3d 27 cc 56 3d
       -0.07223642 -0.076911375 0.04204625 0.05244079
0002b0 13 56 d5 3c 37 e9 c6 3d 90 b4 54 3d 57 73 41 bd
       0.02604202 0.09712451 0.05193001 -0.047229137
0002c0 d7 db ff bd dd 19 70 3d 76 cc d5 bd 00 ed 6b bd
       -0.12493103 0.058618415 -0.104393885 -0.057599068
0002d0 1d 87 72 bd 33 e1 1d 3c e7 73 b8 bc f5 ea 79 bd
       -0.059210885 0.009636211 -0.022516204 -0.061015088
0002e0 1f 6c 9b 3d da a5 0b bd 56 e2 08 3e eb 95 c3 3d
       0.07588982 -0.034093715 0.1336759 0.09550079
0002f0 d8 4d b5 bd 62 34 9d bd cc 84 f2 bc 25 4b 35 36
       -0.08852738 -0.07676007 -0.029604338 2.7014842e-06
000300 a7 79 0e bc 3c 91 ce bd 88 d7 d1 bd 6f 20 88 bd
       -0.008695996 -0.10086295 -0.102461874 -0.06646811
000310 00 2f 82 3c 86 dd e5 bd f2 c7 02 3d cf 6c ad bd
       0.015891552 -0.11223893 0.031928964 -0.08468019
000320 75 de b2 bd 85 55 8e be 9e 35 b6 3d 04 67 d4 be
       -0.087338366 -0.2779962 0.088969454 -0.41484845
000330 52 ea f8 3e f2 0a d0 3e 3f 7d 55 be d2 5b 6a bd
       0.48616272 0.4063335 -0.20848559 -0.057216473
000340 9d 91 9c 3d 0c 2d 1a bd 56 4d 72 3e cb 74 be bd
       0.07644961 -0.037640616 0.23662314 -0.0929962
000350 f8 5d c2 3e b9 51 72 bd fc 7d f4 3d 34 e5 12 3c
       0.37962317 -0.059159968 0.11938092 0.008965779
000360 30 d0 b6 b9 03 da 9d 3c 3a 6e a6 bd ae 89 26 3e
       -0.00034868857 0.019268995 -0.08126493 0.16263458
000370 65 b8 54 3d 0a 76 fc be b4 5b 30 be 3b 8d ba 3d
       0.051933665 -0.49308807 -0.17222482 0.09108969
000380 45 55 42 3d f3 19 92 bc 06 7b 35 3d 1d 32 bf 3d
       0.0474446 -0.01783464 0.044306777 0.0933573
000390 5a b2 d5 3c 09 d4 55 bd ff 1c e5 3d 8b 39 a7 3d
       0.026086021 -0.052204166 0.11187171 0.08165272
0003a0 dd 79 a3 3d a5 79 a6 bd e6 92 b0 3d 9c 78 c5 3f
       0.07982228 -0.081286706 0.08621769 1.5427432
0003b0 34 c8 91 3e 21 25 88 bd ec 60 b8 3c cd a6 5c 3d
       0.28473055 -0.06647707 0.022507153 0.05387001
0003c0 43 ea 16 3f 1b 41 f3 be 4e f3 79 3f d9 f6 c6 3d
       0.58951205 -0.4751061 0.9763688 0.09715051
0003d0 f9 4c c9 3c 83 9f f7 39 ed 03 c5 3d e7 56 d0 3d
       0.024572836 0.00047230357 0.096198894 0.10172825
0003e0 a1 db 04 bc 5c 65 9d bd 23 d2 e2 3e 99 0b 24 3d
       -0.008109004 -0.076853484 0.44300947 0.040050123
0003f0 80 12 f1 be 4e 81 b1 3f ee a5 0e 40 cb 7c 32 bf
       -0.47084427 1.3867586 2.2288775 -0.6972167

1.linear4.bias f4 [80]
000000 f4 7b d3 bf 37 bc 21 be 08 f1 11 bf ec bf 4a be
       -1.6522202 -0.15794455 -0.5700841 -0.19799775
000010 2f d1 20 be 6d 52 72 3e e5 19 a5 be 00 85 05 c0
       -0.15704797 0.23664255 -0.32246318 -2.0862427
000020 a3 a4 b6 3f 3a 6a f6 be ef d3 6e bf 06 2d f1 bd
       1.4268993 -0.4812792 -0.93292135 -0.11776166
000030 c4 3b 9a bf ec a0 d2 3e d8 9f 9d be e3 84 40 bf
       -1.2049489 0.411384 -0.30786014 -0.7520277
000040 e1 d8 10 c0 38 37 a0 bd 0d ba b2 bd 5e f2 43 bf
       -2.2632372 -0.07823032 -0.087268926 -0.765417
000050 6e c8 0a bf da 54 cd be 0c 92 61 bf c5 80 90 be
       -0.5421208 -0.401038 -0.88113475 -0.28223243
000060 a5 3e f3 bd 1b c2 2f bf 31 0d 95 bd aa 03 30 bf
       -0.11877183 -0.68655556 -0.07277907 -0.6875559
000070 17 f8 c6 bd 14 84 a2 be 88 0a b3 bd eb f7 39 3e
       -0.09715288 -0.31741393 -0.08742243 0.1816098
000080 37 d1 48 3f aa bf af be 9b 82 75 bf 2f 40 ad 3d
       0.78444237 -0.34325916 -0.95902413 0.08459508
000090 63 71 e3 bd 43 76 3f be 65 66 ac bd 14 d7 22 be
       -0.11105611 -0.18697457 -0.08417968 -0.15902358
0000a0 4f be e6 bd 16 db 27 bf 5f b3 b2 be 7a 46 2f 3e
       -0.11266767 -0.65568674 -0.34902474 0.17116728
0000b0 c9 09 20 be cb 02 2e 3e 66 be cd bd 76 9f dc bf
       -0.15628733 0.16993253 -0.10046081 -1.7236164
0000c0 bc 29 1d be 3b 85 1c bd d7 17 9d 3e e4 ef c4 bd
       -0.15347952 -0.038212996 0.3068225 -0.09616068
0000d0 2f df 1a be b3 5e 0c be 30 a1 cf bd b5 42 4f be
       -0.151242 -0.13708 -0.10138166 -0.2024029
0000e0 ad f6 d7 bd d3 e1 e9 bf 91 b2 82 bf 93 eb 0c bf
       -0.105450965 -1.8272041 -1.0210744 -0.5504696
0000f0 9b 4a 1b be 41 6e 38 be 37 02 c7 bd 29 5b 38 be
       -0.15165178 -0.18010809 -0.09717219 -0.18003525
000100 11 71 14 bf bd 22 b9 bd 8b e6 28 bf ff ac 0a be
       -0.57985026 -0.09039829 -0.6597678 -0.13542555
000110 11 87 fe bc 99 bf a2 bd 83 14 39 be 06 3f 54 bf
       -0.031070264 -0.079467006 -0.18074231 -0.82908666
000120 10 38 8a 3d 8a 0f 52 be 7a 62 b5 bf c8 d0 71 3e
       0.06748974 -0.2051374 -1.4170678 0.236148
000130 1a a7 86 be 72 7a 1f bf 45 08 ed bd 46 b9 14 3e
       -0.26299363 -0.6229621 -0.11573843 0.14523801

1.linear5.weight f4 [80, 80]
000000 64 66 17 be c3 94 5b bd c5 5b fa bf b5 4c 23 3e
       -0.14785153 -0.053608667 -1.9559256 0.1594723
000010 c7 1a 1a 3d fe f5 ef bf 1b f7 4c bf c3 29 2e be
       0.037623193 -1.8746946 -0.80064553 -0.17008118
000020 cb 64 67 3f 9c f1 0f c0 66 67 f6 bf 8d 78 76 bd
       0.9038817 -2.2491217 -1.9250305 -0.06017356
000030 b9 82 8a be 09 01 18 c0 1c 29 60 be 69 b2 fc bd
       -0.27052858 -2.3750632 -0.21890682 -0.123387165
000040 15 e2 e2 be d4 fb 0f be 8c bf 43 c0 ed 3f 28 bf
       -0.44313112 -0.14060909 -3.058566 -0.65722543
000050 6c 42 28 c0 cd 58 da be 06 4e 20 be 81 29 a3 bd
       -2.629054 -0.42645875 -0.15654764 -0.079669006
000060 ef 10 16 3f f0 81 ea bf e0 5e ac 3d c5 79 37 be
       0.5861959 -1.8320904 0.084165335 -0.17917545
000070 18 00 ce 3c d6 ea 41 bf 3b b5 08 be 31 fb f9 bd
       0.02514653 -0.75748956 -0.13350384 -0.12206114
000080 02 e9 45 3f 88 18 3b c0 4b 41 27 be 49 c5 4d bf
       0.77308667 -2.9233723 -0.16333501 -0.8037916
000090 24 97 cc 3d 47 e7 81 bc d4 86 97 3d eb 19 10 bf
       0.09989765 -0.015857352 0.07398763 -0.5628955
0000a0 61 1a ab 3e 4c f6 4b bf ad 6b b4 bf 1c f1 f8 bf
       0.33418563 -0.79672694 -1.409536 -1.9448581
0000b0 42 8b bb bc 5f 41 d6 bf ca 9c 2f 3d f4 a7 e4 bd
       -0.022893552 -1.67387 0.042874135 -0.11164847
0000c0 c4 e7 5e c0 91 b6 70 bc fc c3 1a be c4 bc 02 3d
       -3.4828959 -0.014691965 -0.15113825 0.031918302
0000d0 60 03 32 bf d9 aa 85 bc 81 78 b2 bd 8d bc 22 bf
       -0.695364 -0.016316818 -0.087143905 -0.63568956
0000e0 f6 22 5f 3b 52 b4 8b bf 6c 16 33 be f6 57 12 be
       0.0034047938 -1.0914404 -0.17489022 -0.14291367
0000f0 86 41 d9 bc 9d 63 76 bd 5d 71 73 bd 39 7f 21 3d
       -0.026520502 -0.060153592 -0.059434284 0.03942797
000100 50 ef 29 bf c5 4c e1 bd c9 77 2b c0 3e 25 b3 bc
       -0.66380787 -0.11000971 -2.679186 -0.021868344
000110 91 05 55 c0 0d 5d 57 bd ec ae 2a bf 67 22 f5 3d
       -3.3284647 -0.052578975 -0.6667316 0.11969452
000120 f8 72 f1 bf a2 86 00 be 2b 7a 4a bd d3 ee 08 c0
       -1.8863211 -0.12551358 -0.049432915 -2.1395767
000130 24 3b a9 bf c2 f2 5e bf bc a1 c5 bd ae c3 36 c0
       -1.3221173 -0.8708917 -0.09649989 -2.8556933
000140 18 82 1d 3f 7f cd 66 bd 7b 9b f1 3f 8d 6a 43 be
       0.6152663 -0.05634832 1.8875574 -0.19083615
000150 2a 47 8e 3d 44 ff 17 bd 52 d1 4c 3f cf ab a3 3f
       0.06947167 -0.037108675 0.800069 1.2786807
000160 47 93 47 bf 92 a6 59 3f a2 d8 2b 3f 2f 5a 0e 3d
       -0.779591 0.8501979 0.6712743 0.034753975
000170 18 ee 98 3e cb 23 71 bf 44 1f 8b 3e 60 3c 53 3f
       0.2986915 -0.9419524 0.2717229 0.82514
000180 31 d4 94 3f 04 6b e1 3c 61 1f 46 3d 41 dd cd be
       1.1627256 0.02751685 0.04836977 -0.40207866
000190 56 9a 77 bf 9a 9d 6b 3f a5 18 2e 3e d8 56 b8 3d
       -0.9671987 0.92037356 0.17001589 0.09000939
0001a0 21 57 97 bf 5f 3b bd 3e 03 33 ff 3c 7f 37 a3 3e
       -1.1823465 0.3695936 0.031152254 0.31878278
0001b0 79 b7 dc bd 17 3b 5b 3e 8e 42 0a 3e c3 6a 28 be
       -0.10777182 0.2140926 0.13501951 -0.16446976
0001c0 73 ce 6b 3f fc 83 0e 3e 28 6a 1d 40 90 2e 07 3f
       0.9211189 0.13917536 2.4596043 0.52805424
0001d0 69 ab d5 3c 18 c3 b5 bd c2 7f 35 bd 68 e9 6c 3f
       0.026082711 -0.08875102 -0.044311292 0.9254365
0001e0 11 05 f7 3e c3 fe f3 3d 8e 74 3d 3f 4f c8 c4 3c
       0.48246053 0.11913826 0.74005973 0.024021296
0001f0 f4 cc cf bd e6 43 8c 3e 57 6c bf bd 33 c7 8d 3f
       -0.101465136 0.27395552 -0.09346836 1.1076416
000200 2e 8e 79 3e 3f 10 b3 bd 16 03 93 be 14 98 98 bd
       0.24370643 -0.08743333 -0.28713292 -0.074508816
000210 6d e0 0f bf dd 98 5c bd 8e 15 e9 3c 93 13 24 bf
       -0.5620182 -0.05385672 0.02845266 -0.6409237
000220 51 80 05 3e 27 ad b7 3f fb 71 77 3f e3 d0 d9 3e
       0.1303723 1.4349717 0.96658295 0.4254218
000230 35 0b 97 bd ad 24 80 3d dc 2a 1c 3d 8d 2e 16 be
       -0.073751844 0.06256995 0.03812681 -0.14666195
000240 2d 55 1f 3f 3c fd 8e bd 89 45 2f bf bc f0 2d 3b
       0.6223934 -0.069818944 -0.6846548 0.0026541194
000250 68 d1 48 3e 7f b7 8a 3d 91 f3 71 bd f7 78 8c bf
       0.19611132 0.0677328 -0.059070174 -1.0974416
000260 a6 fc 1c be df 2f 7b bc d0 27 ad 3f 60 ef 2b bf
       -0.15330753 -0.015331238 1.3527775 -0.6716213
000270 9b 16 18 3f 7e 15 10 3f fa 51 26 bd f8 de bb 3e
       0.59409493 0.56282794 -0.040605523 0.3669355
000280 ed c0 5a 3d ba 5a 91 bd ed e8 a3 3b a4 5a d5 3d
       0.053406645 -0.07097383 0.005002132 0.10417679
000290 97 d4 dc bd 69 21 92 bd 89 84 cb 3d 3d 77 6a bd
       -0.10782736 -0.07135279 0.099373884 -0.05724262
0002a0 f9 1f 22 be ad 62 45 3c 52 f1 d7 bc c9 ee cb 3d
       -0.15832509 0.012047452 -0.026360188 0.09957654
0002b0 79 d6 1d be 7f be 77 bd 65 2d 1f be 7e e2 a3 3d
       -0.15413846 -0.060484406 -0.1554466 0.08002184
0002c0 a3 52 88 3c f0 4c bd 3d f5 e1 65 3d 9d c0 fb bc
       0.016640967 0.0924319 0.056123693 -0.030731494
0002d0 aa 1c a3 bd 78 1d f8 bc 73 21 da bd b8 ba b4 bd
       -0.079644516 -0.03028749 -0.10650911 -0.08824676
0002e0 4f 5c da 3c 54 e2 8f bd 55 0c 9c 3d d3 33 4a 3d
       0.026655344 -0.070255905 0.0761954 0.04936583
0002f0 80 7c 69 3d 14 77 29 be 9f e8 b9 bd c6 ce d5 bd
       0.057003498 -0.16549331 -0.09077572 -0.104398295
000300 b4 ae 8e 3d 31 12 72 bd 3b b9 30 be 42 0d 20 be
       0.06966916 -0.05909938 -0.1725816 -0.15630057
000310 18 35 38 bd a7 b4 da 3d 68 62 e0 bc fe 22 27 be
       -0.04497251 0.10678988 -0.027390674 -0.16321942
000320 74 82 35 be a1 f3 18 be b3 dd c1 bd 5c 2c 17 be
       -0.17725545 -0.14936687 -0.09466114 -0.14763016
000330 de ba bf 3c 26 82 f3 bd 30 e4 a3 3d f0 41 87 bd
       0.023404535 -0.11890058 0.08002508 -0.066043735
000340 d8 6a d0 3d cd d6 8c 3d 59 57 4e bd a7 06 d5 3d
       0.10176629 0.068769075 -0.05037627 0.104016595
000350 be 72 e1 bd 63 3d c7 3d 7d 66 a5 bc f6 dc d2 bc
       -0.110082135 0.097285055 -0.020190472 -0.025740128
000360 a3 a6 95 bd c6 9c 84 3d 38 3d 1a 3d 1c 2b e3 3c
       -0.07307174 0.06475215 0.03765604 0.027730517
000370 db 4b b1 3d 68 3f 21 bd 52 bf 8c bd 75 2a af 3d
       0.086570464 -0.03936711 -0.06872429 0.0855302
000380 cc ef 13 be be 5c 38 3c c4 c2 ca 3d 56 fa e9 3b
       -0.14446944 0.01125258 0.0990043 0.007140438
000390 a1 91 99 bd b6 99 63 3d 54 15 33 3d e5 b2 ad bc
       -0.0749848 0.055566512 0.043721512 -0.021203468
0003a0 c9 b7 dd bd 96 34 b6 3d 8f 46 53 3e 2e db 87 bc
       -0.1082607 0.08896749 0.20632385 -0.016584005
0003b0 ca c8 f2 bd b8 4c 3d 3d 04 14 0b 3c ed d6 80 bd
       -0.11854704 0.046215743 0.008488659 -0.06290994
0003c0 28 3a 9d 3f 82 4e 6f 3d 94 d0 ab 3f d3 93 da bf
       1.2283373 0.05842448 1.3423028 -1.7076362
0003d0 2a 56 c6 bd 80 15 96 be 35 ca e9 be bd 6d 2e 3f
       -0.09684403 -0.29313278 -0.45662084 0.681362
0003e0 36 62 bf 3e 0c a8 ad bf 8f e0 82 bf 5b 0d c8 3c
       0.37379616 -1.3566909 -1.022478 0.02442043
0003f0 23 10 58 3f 7b 20 71 3f ba 15 63 3f 09 01 76 3f
       0.8439962 0.94190186 0.8870503 0.9609533

1.linear5.bias f4 [80]
000000 26 d7 51 be 14 5d cd 3e 72 85 44 be 11 e6 4e bf
       -0.20492229 0.40110075 -0.1919153 -0.80819803
000010 28 b7 f8 be aa 88 9a bf 74 86 75 be 73 4d 02 bf
       -0.48577237 -1.2072957 -0.23977071 -0.5089943
000020 a2 ba f9 bd cc da ca bf a2 7b d1 bd 2d 07 0c be
       -0.121938005 -1.5848022 -0.10228659 -0.13674612
000030 e9 45 2c bf 11 a1 48 be 80 7d 1b be 6d 1a 96 3c
       -0.67294174 -0.19592692 -0.15184593 0.018323148
000040 ad 5b 5a bf d7 71 69 3f 8a 13 6a bf cd 73 f5 be
       -0.85296136 0.9118933 -0.91436064 -0.4793991
000050 66 0c 32 bf 04 f1 0b be 21 50 b6 be 02 3e 11 be
       -0.6955017 -0.13666159 -0.35608009 -0.1418381
000060 0f f3 ae bf b7 40 10 be a4 56 c1 be d7 51 8a 3f
       -1.3667926 -0.14087187 -0.37761414 1.0806226
000070 f8 76 09 3f 7c d0 4b be 23 c2 07 3f ef 36 8b be
       0.53697157 -0.19903749 0.53030604 -0.27190349
000080 4f 4d e6 be b9 61 f7 be fb b2 aa bd 16 29 01 bf
       -0.44980857 -0.48316744 -0.08334919 -0.5045332
000090 fa 06 a5 3d af 99 57 be 5a 3c b1 be 32 0c 70 bd
       0.08057971 -0.2105472 -0.34616357 -0.05860538
0000a0 6a 36 49 be a4 84 85 be 1a 29 aa bf 5f 9b 30 be
       -0.19649664 -0.2607776 -1.3293793 -0.1724677
0000b0 f2 6c 09 3d ac f4 fc bd ba 0d 3f be 8d 34 ad bd
       0.033551164 -0.12351355 -0.1865758 -0.08457289
0000c0 7b 96 2a be 4e da 2e bf 9e 34 ed bd 48 32 02 bf
       -0.16658966 -0.68301857 -0.115823016 -0.50857973
0000d0 e7 4d 57 bf 01 c6 21 be 2a 83 48 bf e7 25 87 bf
       -0.84103245 -0.15798189 -0.7832514 -1.0558442
0000e0 49 07 e1 bd f7 11 3b be 53 b8 4b be 4a 23 5c be
       -0.10987718 -0.18268572 -0.19894533 -0.21497837
0000f0 22 0d 02 be 17 c5 0d be 7b 30 e0 bd 13 53 df bc
       -0.12700322 -0.13844715 -0.10946747 -0.027261293
000100 3d 71 10 be 4b 76 28 bd 61 1d 3e bd a6 ed 23 bf
       -0.14105697 -0.041128438 -0.046414737 -0.640345
000110 bb 1b a1 bd 26 b0 b7 be 4b 7b aa bd b6 2c 3a be
       -0.07866617 -0.35876578 -0.083242975 -0.18181118
000120 74 de 23 c0 98 e6 09 be 2d c3 a9 3e 9e 06 29 3f
       -2.5604525 -0.13466871 0.3315672 0.6602572
000130 d0 b3 c7 bf 64 3d b2 3f e6 b1 04 be 1d 56 b8 bd
       -1.560175 1.3924985 -0.12958488 -0.090008

1.output.weight f4 [1, 80]
000000 c8 57 1b 40 a2 42 35 be db c8 4f bc 5a 9e 03 be
       2.4272327 -0.177012 -0.012682165 -0.12853375
000010 fa 74 74 40 ef a6 d1 bd 61 c9 dd 3e 35 a2 12 3d
       3.8196397 -0.10236918 0.43317702 0.035799224
000020 87 18 df 39 3d 69 6c be 0c b6 1c 3e 50 04 c7 bc
       0.0004255215 -0.2308702 0.1530382 -0.024294049
000030 d4 c9 e0 be 49 5c 36 ba c8 4d b8 3c f6 bb e5 bd
       -0.43903983 -0.00069565006 0.022498026 -0.11217491
000040 4f 4d 3d be 10 ed 7e 3d bb 03 21 bf ce bc 06 be
       -0.18486522 0.0622378 -0.6289632 -0.13157961
000050 8c c4 86 bd 9d 8d 2a 3c 5c 3c 55 bf c2 1c 93 3c
       -0.06580457 0.01040974 -0.83295226 0.017958049
000060 d6 e6 a9 be 34 22 c1 3b de 51 23 be 8a 13 19 3f
       -0.33183926 0.00589397 -0.15949199 0.5979544
000070 18 5f 2c be 12 56 86 3d 4e e2 b3 bd e8 7c 63 3f
       -0.1683315 0.06559385 -0.087833986 0.88862467
000080 21 c8 7b 40 a9 c9 13 bf 7f f6 06 3f d0 ec 25 bf
       3.93409 -0.57729584 0.52719873 -0.6481447
000090 cd 24 ea be 9f 9a cc be 8b dd bc bb c9 79 13 bf
       -0.45731202 -0.39961717 -0.0057637147 -0.57607704
0000a0 bc b2 94 3d 28 6e b5 be b3 96 10 be 6c f9 fc bb
       0.072606534 -0.35435605 -0.14119987 -0.007720163
0000b0 be 36 be bd 87 fc 63 3c 7c 24 b6 3c 56 d1 e2 bc
       -0.09287785 0.013915188 0.022234194 -0.02768771
0000c0 6b 2d d6 3b 7c 06 38 be 3e 80 7f 3c 43 da 67 bd
       0.006536176 -0.17971224 0.01559454 -0.056604635
0000d0 1a 24 e7 3e 0f e2 ba 3d 38 1c 78 be 3b 98 52 bf
       0.4514473 0.091251485 -0.24229515 -0.82263535
0000e0 5a b4 2e bc 24 71 97 3d c9 db b0 3e 37 72 43 3c
       -0.010663116 0.07394627 0.34542683 0.011929086
0000f0 32 26 9a 3d 9e a2 a8 3d db 67 af 3c 0a 43 be 3f
       0.075268164 0.08234142 0.021411827 1.4864209
000100 38 e1 74 bc b4 e8 96 be a7 4d 01 bd 49 51 b7 40
       -0.014946274 -0.29474413 -0.031568196 5.7286725
000110 3b ff 0a 3b 1b 8c 8e 40 9e 75 35 b9 da 0f 40 40
       0.0021209258 4.4546027 -0.00017305321 3.0009675
000120 d4 d7 83 c0 2d ac 9b bc 0d 1c 95 bd 7b d8 37 3f
       -4.120096 -0.019002998 -0.07280741 0.718147
000130 03 b0 81 be 9b 72 34 3e af f6 d5 bc 41 6f 2f 3c
       -0.253296 0.17621844 -0.026118604 0.010707677
